…
global rank 5 successfully build val dataset
global rank 7 successfully build val dataset
global rank 1 successfully build val dataset
global rank 3 successfully build val dataset
[2024-01-27 21:15:25 spike_revcol_small_reuse](main_no_decoder.py 226): INFO =========================================================================================================
Layer (type:depth-idx)                                  Output Shape              Param #
=========================================================================================================
FullNet                                                 [1, 1000]                 --
├─MS_PatchEmbed: 1-1                                    --                        --
│    └─Sequential: 2-1                                  [1, 96, 112, 112]         --
│    │    └─ScaledStdConv2d: 3-1                        [1, 96, 112, 112]         14,304
│    └─Sequential: 2-2                                  [1, 96, 56, 56]           --
│    │    └─ScaledStdConv2d: 3-2                        [1, 96, 56, 56]           83,136
├─SubNet: 1-2                                           [1, 1, 96, 56, 56]        8,308,832
│    └─Level: 2-3                                       [1, 1, 96, 56, 56]        --
│    │    └─Fusion: 3-3                                 [1, 1, 96, 56, 56]        --
│    │    └─Sequential: 3-4                             [1, 96, 56, 56]           159,456
├─SubNet: 1-139                                         --                        (recursive)
│    └─Level: 2-116                                     --                        (recursive)
│    │    └─Sequential: 3-129                           --                        (recursive)
├─SubNet: 1-140                                         --                        (recursive)
│    └─Level: 2-117                                     --                        (recursive)
…
│    └─Level: 2-144                                     --                        (recursive)
│    │    └─Sequential: 3-160                           --                        (recursive)
├─SubNet: 1-141                                         --                        (recursive)
│    └─Level: 2-145                                     --                        (recursive)
│    │    └─Sequential: 3-161                           --                        (recursive)
├─ModuleList: 1-142                                     --                        (recursive)
│    └─Classifier: 2-35                                 [1, 1000]                 --
│    │    └─Sequential: 3-39                            [1, 1000, 1, 1]           514,000
├─SubNet: 1-35                                          [1, 1, 96, 56, 56]        8,580,320
│    └─Level: 2-36                                      [1, 1, 96, 56, 56]        --
│    │    └─Fusion: 3-40                                [1, 1, 96, 56, 56]        18,624
│    │    └─Sequential: 3-41                            [1, 96, 56, 56]           159,456
├─SubNet: 1-138                                         --                        (recursive)
│    └─Level: 2-115                                     --                        (recursive)
│    │    └─Sequential: 3-128                           --                        (recursive)
├─SubNet: 1-139                                         --                        (recursive)
│    └─Level: 2-116                                     --                        (recursive)
…
